mnist/models/model_checkpoint.pth (torch, 89871 bytes, 8 tensors)

conv1.weight f4 [10, 1, 5, 5]
0.2925481 0.18374707 0.23629694 0.013059793 0.28572947 0.12244438 -0.019711455 0.25917965
0.3016601 -0.014985904 -0.22962825 0.08034309 -0.15048298 -0.12204859 0.21303771 -0.34161898
-0.18696487 -0.34370708 0.016295733 -0.21573418 -0.08907929 0.030262465 -0.31700036 -0.016594622
-0.037574407 0.06951697 0.2705959 0.007941391 0.2743294 0.16449842 0.27783322 -0.07256434
0.20241567 0.26232666 0.11174774 0.0027419168 0.10356815 0.2581236 0.29576534 0.046592705
-0.011470316 -0.08863771 -0.029553454 -0.16619922 0.15316685 0.06463128 -0.30727085 -0.0122864945
-0.14236951 -0.08674125 0.21205372 0.20921375 -0.06870144 -0.316407 -0.23722675 -0.029081961
0.18299653 -0.19147606 0.09218005 -0.06327706 0.027014948 -0.0619602 0.27798316 0.1828206
0.09125694 0.22831935 0.07122869 0.13999172 0.092794225 0.28443515 0.045267977 0.08988352
-0.14459029 -0.10907473 -0.07760049 -0.07421988 0.12777442 0.05160667 -0.07012389 0.080076225
0.12574181 0.0814794 -0.041100673 0.17174387 -0.03326766 0.13612477 0.08881266 0.2044814
-0.081371054 -0.1595115 0.24993697 0.3303836 -0.07888468 -0.2454358 -0.24093987 0.2040037
0.21223515 -0.15616414 0.017826064 -0.04841067 -0.051148973 -0.18238461 -0.100282654 0.14579812
0.16125669 -0.30107993 -0.23502144 -0.18264018 -0.0014392731 0.15644714 -0.1805819 -0.2934019
-0.1752478 0.18176995 0.0419743 -0.083729975 -0.20261265 0.15554243 0.015560885 0.33063862
-0.2427067 -0.008951619 0.10327397 0.26563 0.33903822 -0.22866328 -0.11644212 -0.19964592
-0.13784602 0.07257538 0.06871866 -0.2874265 -0.1250992 -0.17667697 0.087225854 -0.11894376
-0.09100911 -0.36713117 0.08382885 0.20533714 -0.11078775 -0.25682926 -0.20139328 -0.094570756
0.097438395 0.040636677 -0.20754263 -0.24511072 -0.14691679 0.3080129 -0.06553382 -0.020484425
-0.12562686 0.10341675 0.05356181 0.24107929 0.019869613 0.19000518 0.082194015 0.0874256
0.09660524 0.12614428 0.19432098 -0.051667336 -0.053078584 0.3019231 0.09511582 -0.100337274
0.032530982 -0.017236538 0.25716203 0.10327922 0.2423404 0.016416015 -0.09891985 -0.1502885
-0.27260044 -0.039984 -0.12737754 -0.032271855 -0.2224752 -0.26514235 -0.23763545 -0.19170107
-0.10861006 -0.05641334 -0.14090863 0.1336782 -0.027288787 0.08530937 0.23186603 0.23278081
0.14519773 0.16117191 -0.04108179 0.2980415 0.27171996 0.13628587 0.027653951 0.16167247
0.033197824 -0.10310389 0.18169068 0.1713049 0.10659983 -0.09599317 -0.043879926 0.07713115
0.14551896 -0.1949557 0.055340994 0.23290852 -0.07660319 0.1980973 -0.061816238 0.2748642
0.11184343 0.19933806 -0.13270234 -0.23136705 0.2072039 0.28223592 0.17350513 -0.0015989372
0.14349638 0.13336034 0.27070984 -0.09068677 -0.071220145 -0.1574354 0.10977682 0.004562625
-0.16579546 -0.2863333 -0.2242603 0.26248747 0.19277708 -0.23960318 -0.21476178 -0.3248386
0.28160614 0.017985493 -0.010616199 -0.0060296524 -0.28694594 0.32304013 0.07820914 0.14634438
-0.1856773 -0.19111294
00000000: ddc8 953e 3128 3c3e d3f7 713e bef8 553c
00000010: 224b 923e 1ec4 fa3d eb79 a1bc 32b3 843e
00000020: 3173 9a3e 7087 75bc ab23 6bbe eb8a a43d
00000030: 3618 1abe 9cf4 f9bd 8f26 5a3e afe8 aebe
00000040: b873 3fbe 60fa afbe a17e 853c 6ce9 5cbe
00000050: 346f b6bd fde8 f73c df4d a2be 72f1 87bc
00000060: 9fe7 19bd ea5e 8e3d 8c8b 8a3e 9c1c 023c
00000070: e774 8c3e 4672 283e 2840 8e3e 9d9c 94bd
00000080: 0e46 4f3e ae4f 863e 00dc e43d bbb1 333b
00000090: 8a1b d43d c728 843e 8e6e 973e fed7 3e3d
000000a0: feed 3bbc b087 b5bd 161a f2bc 2130 2abe
000000b0: c5d7 1c3e 685d 843d 9b52 9dbe 4b4d 49bc
000000c0: 50c9 11be 65a5 b1bd 9c24 593e 213c 563e
000000d0: 57b3 8cbd 1900 a2be 92eb 72be 4b3d eebc
000000e0: 7163 3b3e 4d12 44be e5c8 bc3d 6797 81bd
000000f0: 744e dd3c fbc9 7dbd cf53 8e3e 5335 3b3e
00000100: ebe4 ba3d 8ccc 693e 59e0 913d fd59 0f3e
00000110: e60a be3d 7ca1 913e ea6a 393d da14 b83d
00000120: 7a0f 14be 9262 dfbd 01ed 9ebd 9800 98bd
00000130: 4cd7 023e 8461 533d 1d9d 8fbd 01ff a33d
00000140: 76c2 003e acde a63d 2e59 28bd a0dd 2f3e
00000150: ab43 08bd 4b64 0b3e 69e3 b53d 9263 513e
00000160: dea5 a6bd fc56 23be 7aef 7f3e 0a28 a93e
00000170: 4b8e a1bd 8653 7bbe f1b8 76be 59e6 503e
00000180: 2c54 593e 7ee9 1fbe f707 923c 444a 46bd
00000190: 9681 51bd 08c3 3abe fe60 cdbd 1a4c 153e
000001a0: 7920 253e 2627 9abe 76a9 70be 0706 3bbe
000001b0: fea5 bcba ae33 203e 76ea 38be c638 96be
000001c0: 2974 33be e721 3a3e 3eed 2b3d 9f7a abbd
000001d0: b179 4fbe 8446 1f3e 15f3 7e3c 7749 a93e
000001e0: 1b88 78be d0a9 12bc 4e81 d33d a800 883e
000001f0: 6b96 ad3e b526 6abe 3579 eebd fb6f 4cbe
00000200: 8227 0dbe 67a2 943d 5ebc 8c3d 9129 93be
00000210: 011a 00be cfea 34be 78a3 b23d c998 f3bd
00000220: fc62 babd 9ef8 bbbe 76ae ab3d e643 523e
00000230: b0e4 e2bd 207f 83be 0a3a 4ebe 50ae c1bd
00000240: c88d c73d a572 263d 0e86 54be 4efe 7abe
00000250: 5b71 16be deb3 9d3e 9836 86bd f4ce a7bc
00000260: 54a4 00be 29cc d33d a163 5b3d 7ddd 763e
00000270: 99c5 a23c b890 423e 5655 a83d 310c b33d
00000280: f8d8 c53d f72b 013e 14fc 463e 21a1 53bd
00000290: ee68 59bd aa95 9a3e 15cc c23d a17d cdbd
000002a0: 353f 053d a433 8dbc beaa 833e 0e84 d33d
000002b0: 1528 783e e17a 863c 7e96 cabd 3be5 19be
000002c0: 4992 8bbe 43c6 23bd 426f 02be 7e2f 04bd
000002d0: 8ad0 63be bdc0 87be b556 73be 494d 44be
000002e0: f36e debd ad11 67bd 5a4a 10be f0e2 083e
000002f0: bc8c dfbc aeb6 ae3d 4a6e 6d3e 185e 6e3e
00000300: b7ae 143e 400a 253e 6145 28bd e598 983e
00000310: e11e 8b3e 868e 0b3e 8a8a e23c 788d 253e
00000320: 71fa 073d 2228 d3bd 1f0d 3a3e 8d6a 2f3e
00000330: 0351 da3d 1198 c4bd 70bb 33bd f0f6 9d3d
00000340: ec02 153e 78a2 47be 3dad 623d 927f 6e3e
00000350: 22e2 9cbd 05da 4a3e 0633 7dbd 00bb 8c3e
00000360: 2b0e e53d 471f 4c3e 1fe3 07be 7ceb 6cbe
00000370: 422d 543e 3a81 903e 54ab 313e 6e93 d1ba
00000380: b7f0 123e 9d8f 083e 7b9a 8a3e fcb9 b9bd
00000390: dedb 91bd bf36 21be abd2 e03d 1382 953b
000003a0: 49c6 29be 479a 92be 7ea4 65be c264 863e
000003b0: 5b67 453e 895a 75be 83ea 5bbe 3f51 a6be
000003c0: ae2e 903e 5056 933c 91ef 2dbc 6494 c5bb
000003d0: 94ea 92be 8465 a53e 1d2c a03d 4ddb 153e
000003e0: 3122 3ebe 1cb3 43be

conv1.bias f4 [10]
0.02235173 0.06993734 0.1566196 0.017367966 -0.10538338 0.082032725 0.031204028 0.07905755
0.12299721 -0.014028862
00000000: fa1a b73c 4f3b 8f3d e360 203e 4447 8e3c
00000010: 3ed3 d7bd c600 a83d 979f ff3c ede8 a13d
00000020: f6e5 fb3d 50d9 65bc

conv2.weight f4 [20, 10, 5, 5]
-0.038752947 -0.04242288 -0.02006367 -0.038500827 0.079967245 0.078192666 0.022628386 0.007951159
0.004332792 -0.017478619 0.007834371 0.02381412 0.024181139 0.03317747 -0.018075613 -0.03947182
0.06127244 0.064495504 0.04371548 0.032551806 -0.06700294 0.0057957508 -0.003612022 0.061399586
0.0037756467 0.021606697 -0.08646418 -0.115059674 -0.08286701 0.029745264 0.025397861 0.058572453
-0.031352572 -0.026271766 -0.114996545 -0.013681714 0.026214449 0.091024235 0.027830632 -0.018897116
0.07432696 -0.008828981 0.07577875 0.06439336 0.07097673 0.051496055 -0.029115323 0.022881301
0.055634346 0.07001216 0.04174631 0.033658586 -0.03997718 -0.01913241 -0.0031787616 0.089998364
0.14246 0.034801506 -0.020004604 -0.020701228 0.01135112 0.060678925 0.10650309 0.0983511
0.04782031 -0.024250623 -0.0155324135 0.10567775 0.06581623 0.08170489 -0.08198325 -0.019794606
0.0085541215 -0.01835652 -0.047004063 -0.017282914 0.076796256 0.023313666 -0.050957017 -0.017748648
-0.0023614364 -0.027160287 0.017629784 0.033503044 0.0040865913 -0.001365396 -0.01050169 0.035531215
0.09173858 0.06684842 -0.023179239 0.048993994 0.07264325 -0.019115798 -0.018833015 -0.007836915
-0.024889255 0.07964704 -0.029793411 0.015590652 0.019610558 -0.08550399 -0.14212786 -0.1382898
-0.110020176 -0.023371682 -0.043076985 -0.072346516 -0.056812543 -0.093194984 -0.029821478 -0.050695814
-0.016371666 -0.06412101 0.010111287 -0.022020444 0.014692439 -0.00021073368 0.0069710854 0.0047568944
0.038762044 0.017024532 0.071412474 0.01459053 -0.0532814 0.013690737 -0.08474982 -0.049618833
-0.05718161 -0.09582356 0.0019980506 -0.08333946 -0.12261634 0.02675702 -0.018378226 -0.001055736
-0.11026942 -0.10648444 -0.0712711 0.0039265947 -0.059990387 -0.003066045 -0.04500402 -0.09606534
-0.111481406 -0.0316984 -0.00628122 -0.0411309 0.018050525 0.016546339 0.021209074 -0.009219091
-0.02282535 -0.061463375 -0.023401204 0.004643049 0.01411388 0.063277714 -0.03283153 -0.024895765
-0.0727313 -0.012582134 0.030787762 0.04788413 0.06918219 -0.053065225 -0.033415433 0.05818103
0.045878425 0.059683666 -0.046986505 0.011167266 -0.001684182 0.062289324 -0.04252141 0.043488935
0.0910704 0.085731804 -0.0058402293 -0.06972571 -0.004394792 -0.023152689 -0.0071874615 0.0850311
0.03131406 0.034371313 -0.06827652 0.05764913 0.0419614 0.03968462 -0.023227733 0.067893066
-0.06003704 -0.0057260515 -0.02859598 -0.017591145 0.008399933 0.017161349 -0.10151901 -0.04224742
0.023849256 0.05619178 0.08124377 0.029951883 -0.06729558 -0.008800594 0.016034363 0.023461651
-0.032198336 -0.038872704 -0.071504936 0.0352233 0.007145934 -0.045534257 -0.047103528 -0.051108196
0.0046009147 -0.024818873 -0.035494752 0.043486547 0.019169146 0.011867048 0.052502595 0.009067091
-0.05308393 -0.014251709 0.03433991 0.11855264 0.018503366 -0.09003533 0.026986765 0.0097172875
0.08768559 0.083313175 0.014191337 -0.0073112296 -0.027464882 -0.058669984 -0.022789568 0.010474688
-0.115281306 -0.13727574 -0.046409182 0.047126636 -0.03514623 -0.019398587 -0.05577782 0.051527023
0.078309335 -0.016490027 -0.075202085 -0.0060211187 0.009494163 0.0026402213 -0.036514245 0.009590837
00000000: 69bb 1ebd 9dc3 2dbd 915c a4bc 0bb3 1dbd
00000010: dec5 a33d 7a23 a03d 2a5f b93c 9445 023c
00000020: 18fa 8d3b 522f 8fbc bc5b 003c d415 c33c
00000030: 8617 c63c 19e5 073d 4f13 94bc 34ad 21bd
00000040: cff8 7a3d 3816 843d 010f 333d 0b55 053d
00000050: d638 89bd 48ea bd3b acb7 6cbb 227e 7b3d
00000060: d770 773b 8700 b13c 2214 b1bd 68a4 ebbd
00000070: 2eb6 a9bd 57ac f33c 2d0f d03c abe9 6f3d
00000080: 8e6b 00bd e337 d7bc 4f83 ebbd 4529 60bc
00000090: afbf d63c ea6a ba3d 11fd e33c 20ce 9abc
000000a0: bc38 983d 6ea7 10bc e431 9b3d aae0 833d
000000b0: 3f5c 913d 87ed 523d 4283 eebc 9171 bb3c
000000c0: d7e0 633d 8962 8f3d 2efe 2a3d 96dd 093d
000000d0: 1dbf 23bd 92bb 9cbc c552 50bb 1051 b83d
000000e0: 09e1 113e 068c 0e3d b2e0 a3bc 9f95 a9bc
000000f0: 0cfa 393c 778a 783d 4b1e da3d 4d6c c93d
00000100: 3bdf 433d 3ea9 c6bc aa7b 7ebc 946d d83d
00000110: a9ca 863d e554 a73d d6e6 a7bd 4c28 a2bc
00000120: 9626 0c3c 6a60 96bc 5587 40bd e694 8dbc
00000130: 5b47 9d3d 4dfc be3c 4eb8 50bd 9d65 91bc
00000140: 54c2 1abb 407f debc 566c 903c 7d3a 093d
00000150: d0e8 853b 16f7 b2ba 480f 2cbc 2e89 113d
00000160: 70e1 bb3d d3e7 883d 63e2 bdbc edad 483d
00000170: fcc5 943d bc98 9cbc b247 9abc 6766 00bc
00000180: 8de4 cbbc fd1d a33d 5011 f4bc ef6f 7f3c
00000190: 52a6 a03c b71c afbd f789 11be d79b 0dbe
000001a0: 4252 e1bd f875 bfbc 7e71 30bd 692a 94bd
000001b0: 45b4 68bd 03dd bebd 2c4c f4bc 6aa6 4fbd
000001c0: df1d 86bc e051 83bd d0a9 253c 3864 b4bc
000001d0: 8eb8 703c 64f8 5cb9 b46d e43b b9df 9b3b
000001e0: f3c4 1e3d 0877 8b3c b440 923d 1e0d 6f3c
000001f0: 993d 5abd 1d4f 603c 5091 adbd 1e3d 4bbd
00000200: 4437 6abd 253f c4bd baf1 023b e1ad aabd
00000210: 471e fbbd 8a31 db3c ef8d 96bc 9f60 8aba
00000220: efd4 e1bd 8414 dabd 95f6 91bd aaaa 803b
00000230: 7bb8 75bd b3ef 48bb 2356 38bd e8bd c4bd
00000240: 5d50 e4bd 2ed6 01bd b1d2 cdbb e078 28bd
00000250: b2de 933c 308c 873c a7be ad3c ac0b 17bc
00000260: 3afc babc 05c1 7bbd e2b3 bfbc b824 983b
00000270: e73d 673c bf97 813d 5b7a 06bd 34f2 cbbc
00000280: 26f4 94bd 4c25 4ebc 9e36 fc3c 2622 443d
00000290: 64af 8d3d ec5a 59bd 9fde 08bd 3b4f 6e3d
000002a0: 04eb 3b3d dc76 743d ec74 40bd e9f6 363c
000002b0: c5bf dcba 1723 7f3d ee2a 2ebd 7421 323d
000002c0: 1e83 ba3d 2894 af3d 655f bfbb 5acc 8ebd
000002d0: 3002 90bb b5aa bdbc cc84 ebbb c924 ae3d
000002e0: 2c43 003d efc8 0c3d 8fd4 8bbd 7e21 6c3d
000002f0: b8df 2b3d 578c 223d 1648 bebc 850b 8b3d
00000300: 66e9 75bd 9aa1 bbbb 1e42 eabc 4e1b 90bc
00000310: df9f 093c f595 8c3c 33e9 cfbd a10b 2dbd
00000320: 845f c33c 5a29 663d 2263 a63d a75d f53c
00000330: 44d2 89bd 5e30 10bc 7f5a 833c a632 c03c
00000340: 67e2 03bd fc38 1fbd 2e71 92bd 4f46 103d
00000350: 7028 ea3b 2182 3abd a1ef 40bd d456 51bd
00000360: 45c3 963b f350 cbbc f262 11bd f31e 323d
00000370: 9d08 9d3c 026e 423c f60c 573d 238e 143c
00000380: 896e 59bd 0080 69bc 01a8 0c3d bacb f23d
00000390: 5f94 973c 7164 b8bd 5913 dd3c 4235 1f3c
000003a0: 8194 b33d 19a0 aa3d c882 683c 0a93 efbb
000003b0: 08fe e0bc f04f 70bd 30b1 babc 079e 2b3c
000003c0: 9b18 ecbd 0392 0cbe 8e17 3ebd dc07 413d
000003d0: 7ef5 0fbd c9e9 9ebc 4977 64bd 000e 533d
000003e0: a560 a03d 1816 87bc 8d03 9abd ce4c c5bb
000003f0: 688d 1b3c 9007 2d3b f68f 15bd e322 1d3c

conv2.bias f4 [20]
0.014865646 0.060256045 -0.011036513 -0.019992782 -0.03693439 0.024595357 0.02817329 -0.0076834136
-0.060626972 -0.020353721 0.004656155 -0.04357838 -0.054263886 0.06934682 0.028107375 0.068890706
0.06672646 0.023482174 0.067222334 0.056212086
00000000: 0a8f 733c 0bcf 763d 7ed2 34bc e7c7 a3bc
00000010: 8448 17bd 347c c93c accb e63c 25c5 fbbb
00000020: fd53 78bd d9bc a6bc a992 983b 3e7f 32bd
00000030: cf43 5ebd b505 8e3d 7041 e63c 9216 8d3d
00000040: e2a7 883d b05d c03c ddab 893d a53e 663d

fc1.weight f4 [50, 320]
0.005794255 0.034306683 0.0537561 0.039397962 -0.030064775 -0.077320434 0.06438774 -0.0024859288
0.045591477 0.003793102 -0.014223206 -0.020347536 -0.052204825 -0.09532957 -0.09287036 0.009583759
-0.0037853844 -0.005192282 0.07090305 -0.045892008 0.021729289 0.015055948 0.035736725 -0.0062992736
-0.06842002 0.0069131814 0.01530231 -0.002158713 0.032576267 0.0033902046 -0.04489406 0.016070403
0.0284171 0.009870079 0.0788484 -0.00337403 -0.050518755 -0.060563203 -0.008787723 0.034867518
-0.005314897 0.012690554 -0.052015595 0.006588044 -0.017289758 0.0006063974 -0.02306621 0.008249929
-0.005610185 0.049115125 0.018564451 0.055194475 -0.009658629 -0.04869783 0.02979957 -0.07190875
-0.02056717 0.04399316 0.022114608 -0.050287727 0.00972521 -0.016750159 -0.09106046 -0.0117633045
0.03277368 -0.094998665 -0.054164648 0.040705968 -0.012233233 -0.020518888 0.0645324 -0.03202354
9.327489e-05 0.0055386745 0.05819885 -0.015727345 -0.006611654 0.001698855 8.963712e-05 -0.028789714
-0.036088362 -0.050461337 -0.04463463 -0.027962724 -0.006444134 -0.008373187 0.039446257 -0.016759118
0.041009158 -0.00093159755 0.040197793 0.0052886093 -0.0027434751 0.0067719775 -0.020941636 0.011709017
0.04667219 -0.03086418 0.030435525 0.023374837 0.031017067 -0.06352581 -0.03366913 -0.03879758
-0.025865464 0.019983249 -0.006700624 -0.06245241 0.0333555 0.029442903 0.011937019 0.040249947
0.001728612 -0.050611567 -0.06129388 -0.023468979 0.00618923 0.016892975 0.047787476 0.041615076
-0.06456681 -0.0005975258 0.0006349096 0.022548066 0.0518371 -0.021026403 -0.012015889 -0.014761495
0.011493707 0.04617382 0.014489429 -0.014654227 0.014540647 -0.088776864 -0.092698455 0.065849595
-0.05349175 0.009802797 0.02165228 0.024359217 -0.02786543 -0.0023023658 -0.01502243 -0.08640735
0.0019508621 0.06153013 -0.020066408 -0.03343036 -0.03814241 -0.021634243 -0.052871317 -0.007586271
0.02833681 0.022429932 0.02727219 0.02146254 0.065713346 -0.029109314 -0.065176435 -0.022706868
0.045921415 -0.009273568 0.051144324 0.07350058 -0.017986132 0.03501463 0.0054877764 -0.016105387
0.014112677 0.003635478 -0.022665178 -0.014665761 -0.061623752 -0.090658166 -0.005514378 0.039942794
0.017239269 -0.01089432 0.07366546 0.07397584 -0.05748382 0.012023827 0.0052873096 -0.023985041
0.05145535 0.013261469 -0.03345083 -0.01986742 -0.06932163 -0.060476996 -0.09073961 -0.050257504
0.043264832 0.0078062317 -0.007440648 -0.048809074 0.012671901 0.004595112 0.032328613 0.006617412
0.010804765 0.016098516 0.022911485 0.03266346 0.052510742 -0.017790424 -0.027449403 -0.004926539
-0.010660335 -0.041638087 0.09143549 -0.049049947 0.045129348 -0.006739238 0.05119331 -0.0787294
-0.038487077 0.026325123 -0.009045809 -0.024686854 -0.033766817 0.01646805 0.03172945 -0.025244618
-0.07403375 -0.06954223 -0.018376514 0.06924872 0.01419684 0.04657533 0.034985643 0.032568283
-0.04358151 -0.010440112 0.0038248752 -0.022537835 -0.03698834 0.0017488146 -0.006243744 -0.0098653985
0.055955525 0.0070659663 0.040701367 0.054148905 0.010602214 -0.023331966 -0.030181836 -0.029517926
0.035308488 -0.031100981 0.002096531 0.019956946 -0.052516002 -0.0029441223 -0.097965054 -0.11585771
00000000: bcdd bd3b 2a85 0c3d 5b2f 5c3d c25f 213d
00000010: 674a f6bc 2d5a 9ebd b8dd 833d f7ea 22bb
00000020: 21be 3a3d b195 783b 7308 69bc e0af a6bc
00000030: bad4 55bd 263c c3bd d132 bebd 3305 1d3c
00000040: 3614 78bb 0524 aabb 9e35 913d 42f9 3bbd
00000050: 9f01 b23c 39ad 763c ac60 123d 236a cebb
00000060: cc1f 8cbd f887 e23b 8ab6 7a3c 3279 0dbb
00000070: b16e 053d 322e 5e3b d5e2 37bd 14a6 833c
00000080: faca e83c 1db6 213c 457b a13d d51e 5dbb
00000090: c1ec 4ebd 1f11 78bd 62fa 0fbc 3ed1 0e3d
000000a0: 9628 aebb 0bec 4f3c 4e0e 55bd 85e0 d73b
000000b0: 40a3 8dbc a4f6 1e3a 59f5 bcbc b62a 073c
000000c0: a5d5 b7bb f12c 493d 7a14 983c 9a13 623d
000000d0: 3a3f 1ebc 6077 47bd 3a1e f43c e544 93bd
000000e0: 7b7c a8bc 2c32 343d b229 b53c 81fa 4dbd
000000f0: 7d56 1f3c a137 89bc e87d babd e0ba 40bc
00000100: b23d 063d a98e c2bd c0db 5dbd 4dbb 263d
00000110: e66d 48bc 3a17 a8bc 9029 843d 1e2b 03bd
00000120: 939c c338 c57d b53b eb61 6e3d a2d6 80bc
00000130: 93a6 d8bb 1dac de3a 90fb bb38 68d8 ebbc
00000140: 64d1 13bd 8cb0 4ebd cdd2 36bd 1512 e5bc
00000150: 5029 d3bb b12f 09bc 6692 213d 6b4a 89bc
00000160: 38f9 273d 7436 74ba 71a6 243d 124c ad3b
00000170: e0cb 33bb 77e7 dd3b cb8d abbc 2dd7 3f3c
00000180: 572b 3f3d e0d6 fcbc ec53 f93c 967c bf3c
00000190: 8117 fe3c d219 82bd a4e8 09bd 36ea 1ebd
000001a0: cfe3 d3bc e9b3 a33c e890 dbbb 19ce 7fbd
000001b0: c79f 083d 3e32 f13c 7d93 433c 21dd 243d
000001c0: 9892 e23a 134e 4fbd 4b0f 7bbd 0442 c0bc
000001d0: 06cf ca3b 2363 8a3c cdbc 433d 9274 2a3d
000001e0: 9b3b 84bd 47a3 1cba 1070 263a b9b6 b83c
000001f0: 2453 543d 903f acbc 4bde 44bc 33da 71bc
00000200: 1a50 3c3c c220 3d3d 1265 6d3c 4818 70bc
00000210: e53b 6e3c a5d0 b5bd b0d8 bdbd 27dc 863d
00000220: 2a1a 5bbd e99b 203c 1f60 b13c fb8c c73c
00000230: 0b46 e4bc 4ae3 16bb a320 76bc 56f6 b0bd
00000240: 12b4 ff3a 0507 7c3d 4f62 a4bc 46ee 08bd
00000250: 373b 1cbd 4c3a b1bc 988f 58bd 4196 f8bb
00000260: 9922 e83c fabe b73c ee69 df3c 35d2 af3c
00000270: b894 863d a876 eebc 397b 85bd c103 babc
00000280: 1818 3c3d 2af0 17bc b67c 513d 7987 963d
00000290: a757 93bc 806b 0f3d ced2 b33b 72ef 83bc
000002a0: dc38 673c 3341 6e3b 53ac b9bc a948 70bc
000002b0: 3069 7cbd fdaa b9bd f5b1 b4bb 0e9b 233d
000002c0: 5e39 8d3c 177e 32bc ebdd 963d a580 973d
000002d0: 2774 6bbd 96ff 443c 2b41 ad3b 477c c4bc
000002e0: d8c2 523d a246 593c bd03 09bd 00c1 a2bc
000002f0: 80f8 8dbd bab6 77bd b0d5 b9bd d0da 4dbd
00000300: 7736 313d 6bcb ff3b aed0 f3bb 06ec 47bd
00000310: ce9d 4f3c 9892 963b 026b 043d e0d6 d83b
00000320: 7806 313c 09e1 833c deb0 bb3c 1fca 053d
00000330: 8115 573d 39bd 91bc 92dd e0bc ce6e a1bb
00000340: b0a8 2ebc b38c 2abd 8842 bb3d 99e8 48bd
00000350: 8dd9 383d d3d4 dcbb 14b0 513d e13c a1bd
00000360: a0a4 1dbd c9a7 d73c df34 14bc 163c cabc
00000370: 134f 0abd 01e8 863c bdf6 013d cdcd cebc
00000380: 029f 97bd 286c 8ebd 588a 96bc 46d2 8d3d
00000390: dd99 683c c6c5 3e3d 1b4d 0f3d 5266 053d
000003a0: 8782 32bd 010d 2bbc c2aa 7a3b 44a1 b8bc
000003b0: 1681 17bd 7b38 e53a 5298 ccbb 7ba2 21bc
000003c0: 9f31 653d 9f89 e73b 7ab6 263d 3ecb 5d3d
000003d0: e9b4 2d3c ae22 bfbc e63f f7bc 94cf f1bc
000003e0: a29f 103d 7cc7 febc f465 093b c07c a33c
000003f0: 051b 57bd 2df2 40bb e7a1 c8bd cf46 edbd

fc1.bias f4 [50]
0.009938993 -0.022026032 0.027618615 0.048219774 -0.051719353 0.07879138 0.0139504345 0.011521954
0.025896989 0.0343192 -0.014326701 0.035582904 -0.007504806 0.053311475 0.0938784 0.012312923
0.050606124 -0.006157253 0.02409458 0.10105224 -0.0031950488 0.07244187 0.0042170305 0.019173667
0.0023751268 0.04279023 0.09361736 -0.003802826 0.030776637 0.017623372 -0.0041269436 -0.021230388
0.005314285 -0.008863321 0.069696434 -0.0034175217 -0.018831726 0.04303988 0.001920888 0.07093399
0.08838745 0.06389095 0.031249832 0.03594942 -0.027826102 -0.04107971 0.037826285 0.099854566
-0.042359795 0.01279417
00000000: 28d7 223c f06f b4bc 6f40 e23c 1982 453d
00000010: acd7 53bd 605d a13d 5d90 643c 94c6 3c3c
00000020: ec25 d43c 4a92 0c3d 8aba 6abc 61bf 113d
00000030: e0ea f5bb 225d 5a3d 5243 c03d 24bc 493c
00000040: 5e48 4f3d c8c2 c9bb ff61 c53c 7af4 ce3d
00000050: 0664 51bb 675c 943d 042f 8a3b 1812 9d3c
00000060: 04a8 1b3b cf44 2f3d 75ba bf3d d538 79bb
00000070: 491f fc3c e45e 903c 503b 87bb 5aeb adbc
00000080: 7423 ae3b 7637 11bc 01bd 8e3d 80f8 5fbb
00000090: fe44 9abc 964a 303d 4ec6 fb3a d745 913d
000000a0: 7b04 b53d 42d9 823d a6ff ff3c b33f 133d
000000b0: 91f3 e3bc 3343 28bd bcef 1a3d 8d80 cc3d
000000c0: 7781 2dbd a39e 513c

fc2.weight f4 [10, 50]
-0.055549655 -0.18940297 -0.28997278 0.13342743 -0.19068341 0.1728716 0.117287315 -0.15393503
-0.06623589 -0.08470074 0.16672613 -0.06679534 -0.02353041 0.10024159 -0.17417262 0.16647193
-0.029323785 0.19751848 -0.18133591 -0.116551645 0.11753442 -0.06916884 -0.23321179 -0.03238751
0.16221668 -0.084034964 -0.09795323 -0.1441936 0.1314876 -0.14377534 -0.07574011 0.116210856
-0.22862436 -0.14206271 -0.18293677 0.068851575 0.019348457 -0.10066411 0.12245179 -0.16026424
-0.12801102 -0.08021682 -0.16527914 -0.034957018 -0.21097024 -0.033030767 0.05316191 -0.045411
0.112145565 -0.14583936 -0.25998262 0.06037281 -0.06314888 -0.1444433 -0.18541731 0.14612125
-0.20909046 -0.12817228 -0.18151622 -0.20266035 -0.080822825 0.08642669 0.105680704 -0.19010504
0.062340546 -0.013626559 0.15787962 -0.04636824 -0.21719944 0.14011559 -0.016957095 0.12980555
0.1032668 -0.16965197 -0.04990406 0.021515675 0.12754123 -0.19240755 -0.09502872 0.060712244
0.09435572 -0.10389415 -0.20716836 0.15016903 0.029435491 -0.17726505 -0.21750495 -0.14697379
-0.0582328 0.094340846 0.13077593 0.06801773 0.08306785 0.010009704 0.08666538 0.007533422
-0.123842224 0.13406922 -0.18791386 0.14568684 0.042843 -0.19712164 -0.02752039 -0.13464259
-0.093711145 0.071963586 -0.045494355 -0.016641613 0.012997991 -0.1809806 0.14904451 0.1135207
-0.20315385 -0.020697623 -0.12243751 0.13963129 0.1625378 -0.04167292 0.09621701 -0.17200108
0.04877281 0.13826765 0.099265195 -0.11810223 0.14877363 0.1512186 0.07253146 0.10534192
0.026369285 0.08059382 0.13164575 0.11144292 -0.108678125 -0.080732495 0.0024418966 0.023437792
-0.090528384 -0.1346827 -0.051882997 -0.0031083957 0.087891735 -0.115603626 -0.1301535 -0.10790161
0.10031746 0.1380741 0.0059559154 -0.19519167 0.04682547 0.09899363 -0.030939484 0.14483057
-0.028989468 -0.17015009 0.15454617 -0.11141431 0.11257468 -0.0429859 -0.035595905 -0.18587905
0.07843094 -0.02719221 0.1399107 -0.06861456 -0.03228154 -0.052395437 -0.06889068 -0.057039145
-0.16433361 -0.17683186 0.062650844 0.05713973 0.15107068 -0.02409909 0.1384407 -0.115109496
-0.025526602 -0.059048794 -0.18682486 0.057190333 0.07431216 0.1007122 0.06932802 -0.13038908
0.07940211 0.113585025 -0.19013077 -0.09197021 0.12709627 0.1027437 -0.07203442 -0.13608275
-0.16435236 0.1523733 0.077276245 0.07298551 -0.17781359 -0.19206853 0.03667878 -0.12705852
-0.09155186 0.043580152 0.08982994 0.046092767 0.06891731 -0.16076747 -0.1869397 -0.10811023
-0.10770934 0.035884865 0.11665011 -0.091644585 -0.15187465 0.10866521 -0.16708182 -0.063290544
-0.123438254 -0.00412581 0.12456524 0.110427745 -0.26817062 0.15668724 0.042476427 0.15593995
-0.124965765 -0.042724002 -0.10625279 0.105058916 -0.030269865 -0.15445948 -0.1713376 -0.056094564
0.1285733 0.06502296 0.028617188 0.055164006 0.05775231 0.05764294 -0.19850136 0.12121519
-0.14781542 0.027338164 0.1633734 -0.044550575 -0.16772574 -0.09330669 0.12368049 0.106753945
-0.16587071 0.12651531 -0.061374556 0.15093738 0.0973276 0.03504492 0.15339 -0.020061878
00000000: 0988 63bd daf2 41be 5077 94be 33a1 083e
00000010: 8342 43be 4105 313e 5534 f03d 25a1 1dbe
00000020: afa6 87bd 9577 adbd 41ba 2a3e ffcb 88bd
00000030: d9c2 c0bc 764b cd3d 4f5a 32be 9e77 2a3e
00000040: 6f38 f0bc 4942 4a3e 1fb0 39be a1b2 eebd
00000050: e3b5 f03d 65a8 8dbd 12cf 6ebe c4a8 04bd
00000060: 211c 263e 861a acbd b49b c8bd 7da7 13be
00000070: afa4 063e d839 13be a11d 9bbd f5ff ed3d
00000080: 811c 6abe e378 11be c753 3bbe 0e02 8d3d
00000090: a880 9e3c fc28 cebd 01c8 fa3d 4f1c 24be
000000a0: 5215 03be b748 a4bd ef3e 29be 172f 0fbd
000000b0: 9508 58be 454b 07bd 4ec0 593d e200 3abd
000000c0: 93ac e53d ea56 15be 711c 85be 7b49 773d
000000d0: 3354 81bd f2e8 13be 09de 3dbe cfa0 153e
000000e0: cf1b 56be 983f 03be 63df 39be 3286 4fbe
000000f0: 7086 a5bd 7a00 b13d 206f d83d e5aa 42be
00000100: cd58 7f3d ee41 5fbc 32ab 213e a0ec 3dbd
00000110: 8869 5ebe 767a 0f3e 9be9 8abc bfeb 043e
00000120: 8b7d d33d 3fb9 2dbe 3368 4cbd a441 b03c
00000130: 2b9a 023e 7c06 45be 6b9e c2bd 67ad 783d
00000140: 923d c13d 75c6 d4bd f123 54be e9c5 193e
00000150: b322 f13c f884 35be 9eb9 5ebe 4c80 16be
00000160: 8485 6ebd c635 c13d 20ea 053e e14c 8b3d
00000170: 7a1f aa3d beff 233c 9e7d b13d edda f63b
00000180: fea0 fdbd 7149 093e 7e6c 40be ee2e 153e
00000190: 247c 2f3d 41da 49be 7172 e1bc bfdf 09be
000001a0: a1eb bfbd a561 933d 4a58 3abd fe53 88bc
000001b0: 87f5 543c fa52 39be 209f 183e 8a7d e83d
000001c0: 9007 50be 108e a9bc 84c0 fabd 81fb 0e3e
000001d0: 4f70 263e 39b1 2abd 6c0d c53d 0d21 30be
000001e0: ffc5 473d 0996 0d3e 8d4b cb3d 95df f1bd
000001f0: 1d58 183e 0cd9 1a3e 608b 943d 81bd d73d
00000200: 6604 d83c 5f0e a53d 25ce 063e 303c e43d
00000210: a392 debd 1457 a5bd 3a08 203b 9d00 c03c
00000220: f266 b9bd 43ea 09be 4483 54bd 3ab6 4bbb
00000230: 9500 b43d 98c1 ecbd f646 05be 85fb dcbd
00000240: 3e73 cd3d 4c63 0d3e d729 c33b 53e0 47be
00000250: 10cc 3f3d 2cbd ca3d cd74 fdbc 774e 143e
00000260: 527b edbc d33b 2ebe 5a41 1e3e 302d e4bd
00000270: 8e8d e63d fc11 30bd 03cd 11bd 1457 3ebe
00000280: 67a0 a03d 33c2 debc c044 0f3e ca85 8cbd
00000290: a639 04bd 999c 56bd 8f16 8dbd e1a1 69bd
000002a0: 1247 28be 6913 35be 164f 803d 590b 6a3d
000002b0: 46b2 1a3e 746b c5bc 66c3 0d3e 87be ebbd
000002c0: 2a1d d1bc 26dd 71bd 044f 3fbe 6940 6a3d
000002d0: f930 983d 3342 ce3d d9fb 8d3d b784 05be
000002e0: 939d a23d 449f e83d a4b1 42be e15a bcbd
000002f0: 8625 023e 4a6b d23d c886 93bd 4759 0bbe
00000300: fc4b 28be bf07 1c3e 0243 9e3d 6d79 953d
00000310: c414 36be 9dad 44be 7d3c 163d a11b 02be
00000320: 8b7f bbbd 1a81 323d c2f8 b73d c5cb 3c3d
00000330: 8524 8d3d 3aa0 24be 1f6d 3fbe e568 ddbd
00000340: b796 dcbd 02fc 123d 41e6 ee3d 28b0 bbbd
00000350: 0785 1bbe de8b de3d 7f17 2bbe 799e 81bd
00000360: 32cd fcbd ce31 87bb 101c ff3d f127 e23d
00000370: a94d 89be 9f72 203e c3fb 2d3d b9ae 1f3e
00000380: 0dee ffbd 5dff 2ebd 109b d9bd 2129 d73d
00000390: 82f8 f7bc a02a 1ebe 2073 2fbe 6ac3 65bd
000003a0: b8a8 033e c22a 853d 986e ea3c a7f3 613d
000003b0: b08d 6c3d 011b 6c3d f143 4bbe ab3f f83d
000003c0: ed5c 17be 49f4 df3c 5b4b 273e aa7a 36bd
000003d0: 4cc0 2bbe 9417 bfbd 324c fd3d d0a1 da3d
000003e0: 03da 29be 3b8d 013e e363 7bbd 548f 1a3e
000003f0: b153 c73d 438b 0f3d 4512 1d3e cf58 a4bc

fc2.bias f4 [10]
-0.07032732 0.16595954 -0.15694553 0.00399824 -0.10510187 0.009794235 0.036872797 -0.0549444
0.09937062 -0.10665331
00000000: c507 90bd 4cf1 293e 54b6 20be ab03 833b
00000010: a63f d7bd 0078 203c ee07 173d 610d 61bd
00000020: d382 cb3d 0d6d dabd
