mnist/models/model_checkpoint.pth (torch, 89871 bytes, 8 tensors)

conv1.weight f4 [10, 1, 5, 5]
000000 14 98 02 3e ca f6 21 3e 46 eb 6d 3e 43 cc 4b be
       0.12753326 0.15816799 0.23234281 -0.19902138
000010 19 01 99 3d 70 39 c3 3d 94 50 76 3e 10 b5 a3 bd
       0.074709125 0.0953244 0.24054176 -0.07993519
000020 ea 4a 30 be 42 eb 3f be da 62 ee 3d 42 0d 14 3e
       -0.17216077 -0.18742087 0.11639948 0.14458182
000030 05 07 4b be 21 1a 67 be a2 f7 05 be 87 e5 90 3e
       -0.19826896 -0.22568561 -0.13082746 0.28300115
000040 de 5b b8 bd 35 97 75 bd 2e 05 10 3e 2b 04 5f 3d
       -0.09001897 -0.059958655 0.14064476 0.054447334
000050 bb 2c 83 bd a3 bd c8 bd b1 2f 65 3d 74 a9 01 be
       -0.06405016 -0.09801795 0.055953685 -0.12662297
000060 e4 93 12 bc 39 86 80 3e d7 a8 ff 3d 6d e4 1c 3e
       -0.008946393 0.25102404 0.124833755 0.15321513
000070 6a fe 51 3e 01 e1 ce bd 2a b4 c2 bc 14 31 f4 3d
       0.20507208 -0.1010151 -0.02376755 0.119234234
000080 38 57 0f 3e db d6 0d be b5 29 3c be 60 0a b0 bc
       0.13998115 -0.13851492 -0.18375285 -0.021489322
000090 40 4a 85 3e f9 bf b7 bd cd 2d 60 bd 89 f2 83 be
       0.2603321 -0.08972163 -0.05473118 -0.25770977
0000a0 00 9a 65 3e 40 fc 63 bd 35 39 42 be 15 36 8a bb
       0.22422028 -0.055660486 -0.18967135 -0.004217873
0000b0 bd 4a 26 be ea 84 6b 3e 78 71 53 bb 9d 02 17 3e
       -0.16239448 0.22999921 -0.0032263678 0.1474709
0000c0 18 b9 16 bd f4 4b 10 be 5e 63 6a be 7a 09 d3 bc
       -0.036797613 -0.14091474 -0.22889468 -0.025761355
0000d0 dd b2 6b 3e a2 3a a9 bd e4 c7 e0 3b 99 5b 22 be
       0.2301745 -0.082631364 0.0068597663 -0.15855254
0000e0 8b 7d b3 bd 73 76 1c 3e ba 51 04 be 88 46 1d 3e
       -0.0876418 0.1527956 -0.12921801 0.15358937
0000f0 f5 52 75 be 63 58 95 bd 06 82 73 3e 0d 54 7c 3e
       -0.23957427 -0.07292249 0.23780069 0.24641438
000100 b8 77 47 be 2b 9e 76 3d fd 47 ef bd a9 29 ce 3d
       -0.19479263 0.060209434 -0.116836525 0.1006654
000110 86 31 da bc b1 8c 5c be 1a da b7 bd 80 44 0f 3d
       -0.026634943 -0.21538045 -0.089771464 0.034977436
000120 ef 85 7a 3e e1 74 25 3e 37 f4 84 be 03 e8 09 3e
       0.24465154 0.16157867 -0.2596757 0.13467412
000130 d3 e7 8d bd 51 d4 03 be b2 18 27 be 86 ec a1 3d
       -0.069289826 -0.12873961 -0.16318014 0.079064414
000140 3a 79 1e be ae 88 39 bc 99 a1 1a be ff 0a 43 bc
       -0.15475932 -0.011324091 -0.15100707 -0.011904477
000150 1e 06 28 be 8a 74 c6 3c 7b 42 f5 3c aa 53 87 bd
       -0.16408584 0.024225492 0.029938927 -0.066077545
000160 3b 6b 2c 3e 05 e4 88 bd ef 20 4d 3e 67 ef 31 3e
       0.1683778 -0.06684116 0.20032094 0.17376481
000170 42 5f 47 bd f0 f5 90 3e dd 08 5e 3e 30 31 8e 3e
       -0.04867483 0.28312635 0.21683069 0.27771902
000180 b4 0a b0 3d 0b c3 94 3d 88 45 88 3e 8b 2e 85 3e
       0.085957915 0.07263764 0.26615548 0.26012072
000190 ce cd b6 bd 62 1b 73 be 51 22 09 be 34 18 17 3e
       -0.08925973 -0.23740914 -0.13391997 0.14755327
0001a0 b3 01 36 bd 28 9e 57 3c 21 14 cb bd c0 2b 01 3e
       -0.044435214 0.013160266 -0.09915949 0.12614346
0001b0 44 5a 2a 3e 7f ff 50 3d 33 47 4d be 5a c5 d9 bd
       0.16635996 0.05102491 -0.20046692 -0.10633345
0001c0 b9 98 1e be 13 0b da bd e8 7b ba bd e0 45 52 be
       -0.15487947 -0.106466435 -0.091056645 -0.20534468
0001d0 4e ba 21 be 45 50 51 3e de 2a 77 bd 68 93 e7 3c
       -0.15793726 0.20440777 -0.060343616 0.028268531
0001e0 01 4e 36 bd 2f a1 62 3e 42 91 3c 3e 12 bc 87 3e
       -0.044507984 0.22131799 0.18414786 0.26510674
0001f0 53 bf 66 3e b7 5c 13 be b7 09 61 be 1c 32 2a bd
       0.22533922 -0.14390837 -0.21976362 -0.041551694
000200 f6 17 c7 bd a7 a3 97 be 2c 96 7b be e2 29 4f bd
       -0.09721367 -0.29617044 -0.24569005 -0.050577052
000210 51 9f bc bd 17 6a 79 bd 35 24 34 bd 2a 27 59 3d
       -0.09210075 -0.06089219 -0.043979842 0.053015865
000220 c1 b1 8e be 24 42 84 be 6f c9 4d be c3 4e 49 be
       -0.2786999 -0.2583171 -0.20096372 -0.19658951
000230 5a 28 f2 bd e0 53 dd 3d 35 27 41 be 1d e4 9f 3d
       -0.11824103 0.108070135 -0.18862613 0.07807181
000240 b7 80 de 3d 19 fc 83 bd 48 33 48 3c 35 3a d7 3d
       0.10864394 -0.06444568 0.012219258 0.10509149
000250 77 8a 3c 3e 37 e8 8e 3e 9e b5 fc 3d be 66 04 3e
       0.18412195 0.2791154 0.12339328 0.12929818
000260 fb e0 43 3e 74 42 38 bd 4e 77 76 3e d8 41 89 bd
       0.19128792 -0.04498525 0.24068949 -0.06702012
000270 27 12 89 bd dc d2 35 bd 3e 4f 54 3e 33 2c 07 3e
       -0.066929154 -0.044390544 0.20733353 0.13200454
000280 c8 04 32 be ef 34 5a be a1 58 af bd 9d d3 ab bd
       -0.17384636 -0.21309255 -0.085618265 -0.083899714
000290 e3 9c 42 3e c4 95 72 bd 60 12 07 bd 00 af 10 bd
       0.1900516 -0.05922486 -0.03297651 -0.035323143
0002a0 28 e8 62 bd d1 16 84 3e 48 63 5a be f2 aa 76 be
       -0.055397183 0.25798658 -0.21326935 -0.24088648
0002b0 a6 b7 31 3c 61 a3 85 bc 67 83 8d 3d bf 9a 8c 3e
       0.010847008 -0.016313257 0.06909829 0.27461812
0002c0 5c 39 85 3e a4 eb 0a 3e e6 59 93 3d b0 49 18 bc
       0.26020324 0.13566452 0.07194881 -0.009294912
0002d0 32 ce 73 3e 87 c1 dc 3d 90 cf 81 3e 05 f6 df bd
       0.23809126 0.107791 0.2535367 -0.109355964
0002e0 b0 03 85 3d ab 7f 6e 3e 71 47 88 3d 73 63 b3 3c
       0.06494844 0.23290889 0.06654251 0.021898007
0002f0 e6 18 9d 3d 4d 65 f5 bd 7c 52 75 3d 78 ce a7 bd
       0.076707646 -0.11982212 0.059893116 -0.08193678
000300 6a 76 f6 3d d4 67 4e 3e dc a2 13 3e 7f 66 48 3e
       0.120343044 0.20156795 0.14417595 0.19570349
000310 a4 3f b5 3d cd c1 3e 3d 74 09 71 3e 90 2f 5d 3e
       0.08850029 0.04657154 0.23538762 0.21600175
000320 b9 e1 29 be 0c 93 3f 3e ab 0c 4f 3e e6 87 80 3e
       -0.16590013 0.18708438 0.20219676 0.25103682
000330 d8 eb 94 3d 47 40 c0 bd ee 3f 85 bd dd 1a 0d be
       0.07271546 -0.0938726 -0.06506334 -0.13779779
000340 59 e3 44 3d 73 bd 4d 3e 54 ca 46 be 81 d5 58 be
       0.048068378 0.200918 -0.1941312 -0.21175195
000350 df 53 01 be 36 11 0e bc d5 7a 47 3e 77 d4 8f be
       -0.1262965 -0.008671096 0.1948045 -0.28091785
000360 39 c3 48 be a5 84 57 bd 02 43 8c 3e 78 37 26 3e
       -0.19605722 -0.052616734 0.27394873 0.16232097
000370 2d 0b b8 3d 9d 95 34 3e 77 c6 b1 bc 3d 15 5a 3e
       0.089865066 0.17635198 -0.02170108 0.21297164
000380 95 31 d3 3d e7 47 4b 3c 82 1d 97 3d b3 fa c5 3d
       0.103121914 0.01240728 0.07378675 0.09666958
000390 81 c8 73 3e f9 01 a7 3d 8e 35 ae 3d 2c 84 82 3e
       0.23806955 0.08154673 0.085063085 0.25491464
0003a0 7b d7 42 3e 37 32 42 bd 6c 61 03 3e ff 85 a6 bd
       0.19027512 -0.04741117 0.12830132 -0.081310265
0003b0 be 00 87 3e 5d 5b 6c 3e 50 16 29 bd c4 a1 ea 3d
       0.26367754 0.23081727 -0.041281044 0.114566356
0003c0 ba 8f 6d bc 58 78 20 bd 6e 92 d7 bd 39 52 99 bd
       -0.014499599 -0.03917727 -0.10525976 -0.07486386
0003d0 84 7c 0a be b4 9b 43 3e 25 f5 35 3e 42 88 8a 3d
       -0.13524061 0.19102365 0.17769296 0.0676427
0003e0 4e c5 e6 bd 3e 71 0e 3d
       -0.11268102 0.034775965

conv1.bias f4 [10]
000000 08 66 02 be 90 9b 89 bc 9f 80 7d 3d e9 2f 26 3e
       -0.12734234 -0.01679781 0.06189024 0.16229214
000010 74 f7 69 3e b6 a3 9f bd 92 be 83 3d 99 f5 d5 3d
       0.22848302 -0.07794897 0.06432833 0.10447235
000020 6c f8 70 3b 51 98 06 3e
       0.0036769165 0.13144042

conv2.weight f4 [20, 10, 5, 5]
000000 1a 17 35 3d 9f 0e 84 3d 20 c4 e9 3c 04 69 be bb
       0.044211484 0.06448101 0.028535903 -0.0058108587
000010 c7 78 3f 3d 97 93 c2 3c de 6d 88 3d 44 7b a6 bb
       0.04674604 0.023752017 0.066615805 -0.0050806124
000020 8f 75 08 3d 4b 3b 98 3c 91 ff 85 3b de 0c 50 3d
       0.033315238 0.01858296 0.004089304 0.05079352
000030 01 b5 ad bc 7c ee 6b bd 55 ef f3 bc 87 e6 b9 3c
       -0.021204473 -0.057600483 -0.029777208 0.022692932
000040 73 74 83 bd e9 3c 81 bd d5 0b 1f 3d bf 7d 71 bd
       -0.06418695 -0.06310446 0.038829643 -0.05895781
000050 a2 c3 d2 3d 39 7b ea 3c 50 c1 0c 3d f2 c1 c4 3c
       0.1029122 0.02862321 0.034364045 0.024018262
000060 38 40 5b 3c ef be 71 3c f3 ec 82 3d ad 12 8b 3b
       0.01338201 0.014754995 0.06392851 0.0042441697
000070 43 1e bc 3d a5 fb 9c bc 57 97 9a bc 02 f3 49 bc
       0.091854595 -0.019162962 -0.018870993 -0.012326004
000080 39 7b 1a bd 82 12 20 bd 7d 9b b1 bc 0b 46 29 3d
       -0.03771517 -0.03908015 -0.021680588 0.041326564
000090 85 c9 c5 3c 05 18 00 bd 7a cf 9f bd a9 f7 40 3c
       0.024143944 -0.031272907 -0.07803245 0.011777797
0000a0 f9 0a 00 3d a2 6a cd bc 3b ff fc 3c 86 57 39 3d
       0.031260464 -0.02507526 0.030883422 0.045249484
0000b0 05 87 66 bd 5c 1f ed bc c8 fc ea 3c eb 99 2b bd
       -0.05628111 -0.028945617 0.028684989 -0.041894834
0000c0 04 54 37 3c 12 3f 89 3d 78 27 64 3d aa cf 21 bd
       0.0111894645 0.06701483 0.055701703 -0.039504685
0000d0 85 e3 0b 3d e9 08 c5 3a ad 39 73 bd 5c f2 36 bd
       0.034152526 0.0015032563 -0.059381176 -0.044664726
0000e0 1d d2 cf 3c cf b6 73 3c d9 da a5 3c f7 c4 9b 3a
       0.025368745 0.014875128 0.020245956 0.0011884262
0000f0 c5 c9 d3 bc 6f 0d 6e 3d a6 3e 42 3d c3 ff 6f bd
       -0.025853047 0.05811828 0.047423027 -0.058593523
000100 c8 a3 7a bd f6 ce 91 3c b2 40 5e 3c bc fa cb bc
       -0.06119135 0.017798882 0.013565229 -0.024899833
000110 46 f8 83 3d 77 af 8b 3b 7e 47 86 3c 4d f0 9b 3d
       0.06443839 0.0042628604 0.016391512 0.07614193
000120 a6 39 93 3d 95 4c 7f 3d ab e8 d0 bc d9 e8 0a 3d
       0.0718873 0.062328894 -0.02550157 0.033913467
000130 f3 ad 5d bd 56 e4 f5 bc 04 53 86 bd ee 65 53 bd
       -0.05412097 -0.030016106 -0.06558803 -0.05161088
000140 a5 fe d4 bd 57 cc 85 bd 5c 54 63 bd 6a 3f a2 3c
       -0.10400132 -0.06533115 -0.055500373 0.019805629
000150 d5 19 02 bd ed ef 5f bd e8 3a 82 bd d1 41 c3 bc
       -0.031762917 -0.05467217 -0.06358892 -0.023835095
000160 6d 90 a9 bc f4 68 9e 3d 60 c4 65 3d 03 40 b6 3c
       -0.02069875 0.07734862 0.05609548 0.02224732
000170 86 bd 82 3c 21 79 7f 3d 52 69 a1 3d 59 52 8e 3d
       0.015959512 0.062371377 0.078814164 0.069493
000180 c5 e5 22 3d 74 0e d0 3d 0c ad c3 3d e7 02 8d 3d
       0.039769907 0.10159007 0.095544904 0.06885319
000190 57 1a 48 bd 04 a1 8e bc 8c 0f 08 bc 3f 66 65 bb
       -0.048853245 -0.017410763 -0.008304488 -0.003500357
0001a0 89 59 9c bd b7 07 9d bd 35 29 75 bd d1 2b 20 3d
       -0.07634265 -0.07667487 -0.05985375 0.039104287
0001b0 1d fd 5e 3c a2 1b 49 bd 26 2d e3 bc 62 40 4c bc
       0.013610152 -0.04909862 -0.02773149 -0.012466522
0001c0 fd f5 f8 bc 39 7b 1c 3d bb 18 a9 3c ef d1 cc bb
       -0.030390734 0.03820345 0.020641675 -0.006250612
0001d0 4e f1 50 3c 9b 65 bb 3d e4 c1 dc bb ef 0d a4 3d
       0.012752844 0.09150239 -0.0067369808 0.0801047
0001e0 7e d0 62 3d 73 06 17 3c f8 39 3c 3b 0e 09 67 3b
       0.055374615 0.009217846 0.0028721076 0.00352532
0001f0 e4 4c 8f 3d a5 9a 53 3d 8e 49 4b 3d c6 b8 30 3b
       0.069970876 0.051661152 0.049630694 0.0026965602
000200 ba 3b c3 bd 09 46 90 bc d3 93 02 bd 94 a4 17 3d
       -0.09532876 -0.01761152 -0.031879257 0.03702219
000210 81 33 31 3d 7d d8 4b bc ed 83 9e 3d 91 09 6d 3d
       0.04326201 -0.012441752 0.077400066 0.05787045
000220 50 b2 be bc 9f 74 60 3d fe 2c 37 3d ed c0 9f 3d
       -0.023278385 0.05479872 0.044720642 0.078004695
000230 71 8c c2 bc 05 92 f0 3d f4 18 cc 3d 2c 98 68 bb
       -0.023748608 0.11746601 0.09965697 -0.0035491092
000240 4d 7e 36 3d d6 a1 4c bc cb 81 b3 3d 0e c0 23 3d
       0.044554044 -0.012489757 0.087649904 0.03997808
000250 ea 44 80 3c 9b c4 16 3d 83 be 88 bb 48 1b 3a 3d
       0.01565786 0.03680859 -0.0041731014 0.045436174
000260 d9 00 7a bb e0 1a 25 3d 18 49 70 bd 46 ed 5a 3c
       -0.0038147478 0.040308833 -0.058663458 0.013362234
000270 c1 20 b3 3c 4e e3 f4 3c f3 d0 0f bc 61 9a 88 3d
       0.021866204 0.029893544 -0.008777845 0.066700704
000280 6c 6c 92 bd 0b a9 41 bd e1 c3 fa 3c 14 e3 07 3c
       -0.07149586 -0.047280353 0.03061098 0.008293886
000290 6c 1c 25 3d a1 66 2e 3c e3 90 7c bd 07 85 0f bd
       0.04031031 0.010644586 -0.061661612 -0.035038974
0002a0 86 e5 af 3b 55 62 60 bc 7a 8c be bc 75 b3 63 3c
       0.0053679375 -0.013695319 -0.023260344 0.013897766
0002b0 ee 65 c7 bd e1 0f 90 bd 56 77 f9 bc f0 75 a0 bb
       -0.097362384 -0.07034279 -0.030452412 -0.0048968717
0002c0 9b 72 00 3d 00 ea 1b bd 69 84 b7 3d ef 1a 65 bc
       0.031359296 -0.038064957 0.08960802 -0.013983472
0002d0 5f e6 f4 3c 93 a6 5b 3c b7 87 99 bc f9 23 ba 3c
       0.029895006 0.013406414 -0.018741472 0.022722231
0002e0 c4 3f 18 3d 6e f1 15 3b 41 97 68 bd bd 4b 85 3b
       0.037170187 0.00228795 -0.056784872 0.0040678666
0002f0 3d a3 78 bd 65 48 b4 bd 75 fd 95 3d ab 09 0a 3b
       -0.06070255 -0.08802871 0.07323734 0.0021062891
000300 17 bb 8f bd e4 26 32 3d df 8b 18 bd 6a c3 91 3d
       -0.070181064 0.04349412 -0.037242766 0.071173504
000310 ee 2e 4d 3d c6 f7 91 3c 15 f4 83 bc 16 4b 63 3c
       0.050093584 0.017818343 -0.016107598 0.013872882
000320 da 33 18 bc bc 9e 2f 3c 19 86 67 bd e6 6f 60 bc
       -0.009289706 0.010718998 -0.05652437 -0.013698554
000330 cc ce c1 bc 6d f6 a5 bd 52 f5 11 bc 58 bf 79 bd
       -0.023658179 -0.081036426 -0.008908587 -0.060973495
000340 c0 19 ab 3c 60 ec a6 3c 81 0a 14 bb 7d cb 19 bd
       0.020886302 0.020376384 -0.0022589269 -0.037547577
000350 00 4a 7b bd 12 85 01 bd f8 5f 67 3d d6 21 be bc
       -0.06134987 -0.031621046 0.056488007 -0.023209494
000360 1b 56 29 bb f0 b4 75 3d c8 bc b6 3c f8 bd 61 3b
       -0.0025838676 0.05998701 0.022306815 0.0034445506
000370 8d 03 8d 3d 2c af a8 bc 15 57 20 3d 90 7a 76 bc
       0.06885443 -0.020591341 0.039145548 -0.01504387
000380 54 cf 8c bd 91 ed 4a 3c 13 dc 93 3d d2 a5 bf bc
       -0.06875482 0.012385742 0.0721971 -0.023394499
000390 1a 34 4c 3d 8e dc 6b 3d be 41 21 3c 8d 57 4d bd
       0.049854375 0.057583384 0.009842334 -0.050132323
0003a0 82 da 0a bd f1 29 7b 3d b6 09 88 bd bc 7d 2d 3d
       -0.03389979 0.061319295 -0.06642477 0.042356238
0003b0 8c 94 24 bd 72 ff 4b bd 81 18 d7 3b 65 1d 51 bd
       -0.040180728 -0.04980416 0.0065642004 -0.051053423
0003c0 76 29 81 3d fa ec 21 bc 09 47 b2 3c 1a 0d 19 3d
       0.06306736 -0.00988316 0.021762388 0.03736601
0003d0 28 fe 83 3d 2b 8e 9b bc c9 b8 34 bd b5 24 b4 bc
       0.06444961 -0.01898869 -0.044121537 -0.02199016
0003e0 76 71 05 3d cb 2d 87 3d a8 1e 36 bc 80 54 bb bc
       0.032578908 0.06600531 -0.011115707 -0.022867441
0003f0 14 a0 7a 3d 02 dd 84 3c 14 5b 5e 3d 9e 5e 22 3b
       0.06118782 0.016218666 0.054286078 0.0024775635

conv2.bias f4 [20]
000000 cd e9 6c 3d 5d d1 13 bd 8e 75 e3 bc 16 22 eb ba
       0.057840157 -0.036088336 -0.027766015 -0.0017939236
000010 10 10 6d bb de 42 4b bd b8 25 33 3c 60 fa bd bc
       -0.0036172904 -0.049624316 0.010934286 -0.023190677
000020 4e 78 3e 3b 9b a2 57 3d 03 94 b3 3c 58 81 c0 bc
       0.0029063406 0.052645307 0.021921163 -0.023499176
000030 bb 6e 82 3c c5 13 a7 3b 0b d6 71 bc b3 61 65 3b
       0.015921941 0.0050987923 -0.0147605045 0.003500086
000040 38 8f 29 bd ae 3e 92 3d 6a ea 6a 3d 83 b8 93 bc
       -0.04139635 0.071408615 0.05735246 -0.018032318

fc1.weight f4 [50, 320]
000000 99 02 8d bb e0 28 16 3d 35 f4 29 3d 4e cb 38 bd
       -0.004303288 0.036660075 0.04149266 -0.04511576
000010 b7 86 3d 3c b5 de f4 3a e2 07 8a bd 51 f2 af 3c
       0.011567763 0.0018682095 -0.06739785 0.02147785
000020 80 f9 62 3c e6 db c8 bc 8b c9 19 bd 49 c5 42 3d
       0.013853431 -0.024518918 -0.037545722 0.047551427
000030 bb ca a1 bc 5b 10 8f 3d 5c 34 71 3d 72 28 92 bc
       -0.01974999 0.069855414 0.058887824 -0.017841551
000040 c7 66 11 bc 6f 51 32 3b 8e 74 7f bc fe 69 a8 bc
       -0.008874602 0.0027209183 -0.015591754 -0.020558354
000050 59 a3 e4 3c 27 39 03 3d 5e 10 63 bd 27 8d 9f 3d
       0.027909921 0.032036927 -0.05543553 0.077905945
000060 3b cc f2 bc 3d a8 8b 3c 5f 92 c3 3b e5 fc 7b bd
       -0.0296384 0.017047996 0.0059683765 -0.061520476
000070 24 39 92 3c d4 5d 0b 3d 0a f0 de 3c 69 5b 84 bd
       0.017849512 0.03402503 0.027214069 -0.064627476
000080 af ee 80 3d 4d cb a0 bc b4 3f fb bc 0d 24 99 bc
       0.06295525 -0.019628191 -0.030670024 -0.018693948
000090 d8 2c e2 bb 00 39 0d bd cd 21 b4 bd d3 10 71 bb
       -0.0069023184 -0.034478188 -0.087955095 -0.003678371
0000a0 3d 69 6a bc 5d 1d 5c bd 90 f6 17 3d 0a b9 54 3d
       -0.014307317 -0.05373894 0.037100375 0.05193428
0000b0 01 09 82 bc 75 2b 37 bd 08 39 12 3d d3 67 10 bd
       -0.015873434 -0.04471918 0.03569892 -0.035255264
0000c0 45 f7 1c bc 9c af 22 bc 1f 23 0c bd e7 6c ea bc
       -0.009580438 -0.009929564 -0.03421318 -0.028616382
0000d0 98 54 1c bd 46 74 8d 3c 71 ef b0 bc cf 3f cb bd
       -0.038166612 0.017267358 -0.02159855 -0.0992428
0000e0 5a 1f 68 3d 29 b4 3f 3d 20 97 4d 3d 91 26 42 3a
       0.056670524 0.046802673 0.050192952 0.00074062595
0000f0 e6 63 8d 3b f4 8a c6 bc ab 67 ae 3d 02 28 bc 3d
       0.0043148873 -0.02423618 0.08515867 0.091873184
000100 3d bc 38 3d 8b 16 a3 bb a4 44 26 bb 5a 92 fb ba
       0.045101393 -0.0049770526 -0.0025370503 -0.0019193396
000110 18 03 b6 3c 36 82 cd 3c 57 cf 4c 3c 7a 89 a3 3c
       0.022218272 0.025086503 0.012500606 0.019963015
000120 22 e5 4e bc a3 ed 87 b9 9a 51 0f 3d f1 17 0b bd
       -0.012627872 -0.0002592626 0.03498993 -0.03395838
000130 7e a4 e2 ba b0 92 43 bd 45 b1 49 bd 4f 71 25 bd
       -0.0017291454 -0.047747314 -0.049241323 -0.040391263
000140 b4 c9 45 3c f2 3c e0 3b 5c b2 f7 3c 55 3c c2 bb
       0.012072016 0.0068432027 0.030236416 -0.0059276023
000150 90 4c 89 3c b2 0e 37 bc 34 09 82 bc 13 36 f9 bc
       0.01676014 -0.011172937 -0.015873529 -0.030421292
000160 16 9a 4a bc a8 b6 8e 3d ee 47 1a 3d 18 c3 aa bc
       -0.0123658385 0.06968433 0.037666254 -0.020844981
000170 b5 77 99 bd cd 1c fa bb 04 db c2 3b 86 b6 28 bc
       -0.074935354 -0.007632828 0.005946519 -0.010297423
000180 b6 d7 29 3d af f2 16 3d f0 b5 00 3d e5 70 93 3d
       0.041465484 0.036852535 0.03142351 0.07199267
000190 0a 84 50 3d ab 2e 94 bd 36 0a 7f bd a9 15 e4 bb
       0.050907172 -0.07235464 -0.062265597 -0.00696059
0001a0 53 4d b4 3c 8d 0e 9d bb 49 4f 51 3b e6 2a 0b 3d
       0.022009527 -0.0047929944 0.0031938127 0.033976458
0001b0 f3 73 f5 bc 11 08 43 bc 5f 09 1d 3c ec 84 2c bd
       -0.029962515 -0.011903779 0.009584754 -0.04211895
0001c0 93 16 86 3c ea 0f 66 3d 9c bb 0b 3d 4f db 54 3d
       0.016368186 0.05616752 0.034114465 0.05196696
0001d0 f2 64 c3 bc 95 b4 41 3d 55 08 1b bb 16 e1 a7 3b
       -0.023851845 0.047291357 -0.002365609 0.005123268
0001e0 c0 ab db bc 3e e1 72 3d 89 25 4d bc c5 6a 1b bd
       -0.026815295 0.05929684 -0.012521156 -0.03794362
0001f0 5c 9d 49 bd ef 26 13 bd 62 da bd 3c 0c e5 98 bd
       -0.049222335 -0.0359258 0.023175422 -0.07465562
000200 70 01 ac bd 86 de aa bc e4 e1 4a bd a2 60 12 bc
       -0.08398712 -0.02085806 -0.049531832 -0.008934172
000210 6d cc bb 3c ca 33 3d 3d e6 2a 8c 3d e5 db f8 bc
       0.022924626 0.046191968 0.0684412 -0.030378291
000220 e9 40 58 bd 20 d0 3a bc 83 6f 1b bd 9a 60 8f 3c
       -0.05279628 -0.01140216 -0.037948143 0.017502118
000230 78 dc 03 3c d7 45 b5 bc 29 c5 2c 3d 83 d4 b1 bc
       0.008048169 -0.022128029 0.042180214 -0.021707779
000240 78 6c 5f bd df 4e 1e 3d a4 d2 c7 3c 73 69 71 3c
       -0.054546803 0.038649436 0.024392433 0.014734614
000250 93 cc 91 bd a2 18 5f bd ae e0 44 3c 71 7e 2c 3d
       -0.071190976 -0.05446685 0.012016458 0.04211277
000260 79 b0 d5 ba 0b 38 72 3d 57 f6 13 3d 0e 6e 86 bd
       -0.0016303203 0.059135478 0.0361236 -0.0656396
000270 cb 36 5a bc a8 4f 4a bc 16 15 e0 3c dd 2f 19 bd
       -0.013318728 -0.012348093 0.027353805 -0.03739916
000280 15 8d 9c 3c be 36 e3 bc 15 a1 0c bd 7f 16 5e bd
       0.019110242 -0.027736064 -0.034333307 -0.054220673
000290 7c 32 f3 3c 4f d7 f2 3c a0 de 95 bb c2 15 cc 3c
       0.029687159 0.029643683 -0.004573658 0.024912719
0002a0 90 97 2a bd 2b cc 7d 3c db 7c e6 bc 53 e6 93 3c
       -0.041648448 0.015490572 -0.028135708 0.018054163
0002b0 e3 45 4b 3c d9 ba f7 ba 78 5f a1 3c 7c 16 06 bd
       0.012406799 -0.001890029 0.019698843 -0.032736287
0002c0 de 4a bd 3c 03 f2 32 3d 25 04 c3 3c f5 40 27 bd
       0.023106989 0.04368783 0.023805687 -0.040833432
0002d0 c0 39 98 bd 68 74 7b 3c fd fc 40 bc 96 bd 94 3c
       -0.0743289 0.015347578 -0.011779067 0.018156808
0002e0 66 01 0f bd 59 ee 34 bd ad e1 f6 bb a6 7d 51 bd
       -0.034913443 -0.04417262 -0.007534227 -0.05114522
0002f0 6e db 71 3d 3f 40 f3 3c 31 73 0d bd b9 bb bf bc
       0.059047155 0.02969372 -0.034533683 -0.023404943
000300 a4 2b b4 3c 27 6a b5 bc fe 7a 90 3b 55 0f e4 bc
       0.021993466 -0.022145344 0.004409193 -0.027839342
000310 8e c9 b0 bc fa 38 f4 bc 60 69 18 3d 6f d7 e6 3b
       -0.021580484 -0.029812325 0.03720987 0.0070447247
000320 0e 72 89 b9 2b 21 33 bd 87 b3 89 3c 74 07 38 bc
       -0.00026215654 -0.043732803 0.016809238 -0.011232246
000330 86 c2 0f 3d 50 10 05 3d 2c 29 31 3d 79 3e 10 3d
       0.03509762 0.03248626 0.043252155 0.03521583
000340 71 e4 4d bc c7 83 a8 bc 5e a7 75 bd 9e 51 25 3d
       -0.012566672 -0.020570649 -0.059974067 0.04036104
000350 a7 7a 8c bc 35 74 e1 bc 40 fe 91 bd 5e 85 f4 3c
       -0.017148329 -0.027521232 -0.071285725 0.02984875
000360 dc a8 48 3d fa 99 97 bd ac e3 de 3b 14 3d 16 bb
       0.04898916 -0.074024156 0.006802043 -0.002292459
000370 7e e4 22 bd 93 8e 95 3d 1d bf c4 3a 39 c5 81 3d
       -0.03976869 0.073025845 0.001501057 0.06336445
000380 e8 c3 e4 bb b4 26 20 bc 31 06 65 3d 6e cb 17 3b
       -0.0069813617 -0.009774853 0.055914108 0.0023162025
000390 cb a7 26 bd 03 5f e1 3c f7 f6 f8 3a 1f e0 75 bd
       -0.040687364 0.027511125 0.00189945 -0.06002819
0003a0 af 53 94 bc 1e a8 d9 3c 84 51 c7 bb d5 89 20 bd
       -0.01810631 0.026569422 -0.0060827155 -0.039193947
0003b0 a6 91 b9 bc 66 69 a4 3c 3b d8 a4 3d ca 84 96 3d
       -0.022652458 0.02006979 0.08049055 0.07349546
0003c0 47 8b 87 3d 35 93 8e 3d d6 fb 53 bc 2d 44 e6 bb
       0.06618362 0.06961671 -0.01293846 -0.00702717
0003d0 6d 16 10 bd c8 64 11 3d 7a d5 00 bc 3a 59 2a bc
       -0.035177637 0.035496503 -0.007863397 -0.01039725
0003e0 e2 6f c0 3c fe 99 3a 3d b5 b0 27 bd df 17 f3 bc
       0.02349085 0.045557015 -0.040940005 -0.029674469
0003f0 bb 2c e0 3b 12 56 ed bc a7 19 ac ba df a5 16 bd
       0.00684127 -0.028971706 -0.0013130204 -0.03677928

fc1.bias f4 [50]
000000 38 c3 24 3d 80 87 18 bb 2a 0b 89 3b f7 4a 03 bd
       0.040225238 -0.0023274124 0.004182239 -0.032053914
000010 3c b0 31 3d fb d7 15 bd 1c 72 34 bd cc 16 24 bd
       0.04338096 -0.03658293 -0.044054136 -0.040060803
000020 e2 fe a3 bc 86 ef 2a 3c eb ee c8 3c 5c a5 30 3c
       -0.020018999 0.010433083 0.024527987 0.010781612
000030 1c c3 f8 bc 74 f9 06 bd 09 8b 85 bc 6a 4d 0d 3c
       -0.030366473 -0.03295274 -0.016301649 0.008624414
000040 75 ee dd 3c 6e ff 38 bc 04 d7 ce bc 2c d4 68 3c
       0.027091244 -0.011291368 -0.025249012 0.014210742
000050 a8 06 32 bd 7d ef a7 3c 0e 65 54 3d c9 e4 ee 3c
       -0.04346338 0.02049994 0.051854186 0.029161828
000060 73 d9 ab bc d7 c0 c4 3c fa 0b 95 3c e1 ec 65 3d
       -0.020977711 0.024017734 0.018194187 0.05613411
000070 eb c2 16 3b d3 1b 83 bc 3e 55 cd bc ad 3a 72 3c
       0.0023004364 -0.016004479 -0.02506506 0.014784497
000080 29 11 20 3d d3 cb a1 bc 46 c1 be bb d5 02 85 bc
       0.039078865 -0.019750511 -0.00582138 -0.016236702
000090 a0 69 44 bd ad 34 1e 3d e5 11 14 3d e4 7a 9f bc
       -0.047952294 0.038624454 0.036149878 -0.019467779
0000a0 d0 b5 36 bd aa c0 57 3b 87 ac dc 3c ae ab 13 3d
       -0.044606984 0.0032921233 0.026937736 0.0360524
0000b0 b8 72 ed bb fe ee b9 3c 1e 36 80 3c a5 7b 97 bc
       -0.0072463416 0.022696968 0.015650805 -0.018491575
0000c0 10 1f 00 bd 64 6b 7b 3d
       -0.031279624 0.061381713

fc2.weight f4 [10, 50]
000000 16 0d 2f be 44 50 f2 bd 3d d5 48 bd 1b af 42 be
       -0.17094836 -0.11831716 -0.049031485 -0.1901211
000010 bf 89 63 be 12 ae f5 3d a7 41 02 bd 9c 58 14 3e
       -0.22220515 0.11996092 -0.031800892 0.14486927
000020 bb 63 03 be 12 6f 1b bc b8 27 2d be 3a 71 eb bd
       -0.12831013 -0.00948693 -0.16909683 -0.11496206
000030 85 e4 94 bd aa 66 52 be c0 34 21 be 87 f6 93 3d
       -0.07270149 -0.20546976 -0.15742779 0.07224756
000040 07 1c 5b bc 1e 6f a5 3c 28 c2 77 3d 03 57 20 bd
       -0.013373381 0.020194586 0.060487896 -0.03914548
000050 8a 2e f8 3d 87 42 75 3d 63 34 2b 3e d4 05 39 be
       0.121182516 0.0598779 0.16719203 -0.1806863
000060 8f 3c fd bd 73 39 96 3d d2 e0 a4 3d 56 c0 fd bc
       -0.12365066 0.07335176 0.080506936 -0.030975502
000070 76 34 7a 3d 1f ca bf bd 94 25 aa bd ff 45 0e bd
       0.061085187 -0.093647234 -0.08307949 -0.034734722
000080 27 fe 30 bd 2f 58 e6 3d bd b9 75 3d 9f b7 59 bd
       -0.04321113 0.112472884 0.059991587 -0.05315363
000090 91 dd ef 3d f9 02 66 3d 9f 61 26 bd 6c 7c 34 be
       0.11712182 0.05615518 -0.040620442 -0.17625588
0000a0 56 bc be 3c e1 d2 39 bd 3d c7 c1 3d 8b a2 08 3e
       0.023283165 -0.045367125 0.0946183 0.13343255
0000b0 76 8f 90 3d 9a ea b7 3d 89 d1 36 bd 1d 01 fa 3d
       0.07058613 0.089802936 -0.044633422 0.122072436
0000c0 3b 46 e0 bb fb b6 93 bd 0b 3d ac 3d e2 a3 3b bb
       -0.0068443096 -0.07212635 0.084100805 -0.0028631617
0000d0 7f c0 e2 bd b1 7b 15 3c 5b 8c d9 bd 9d 2a f4 bd
       -0.11071872 0.009123729 -0.10622474 -0.1192219
0000e0 6a 15 f9 3c 40 0d be bd 38 06 21 3e 20 a9 83 ba
       0.030405719 -0.09279871 0.15725029 -0.001004491
0000f0 67 d7 81 3d 4e 48 aa 3c 98 c6 12 be ff f7 c8 3d
       0.06339913 0.02078643 -0.1433357 0.098129265
000100 5d cf 84 3d fb e9 38 be f0 7d 41 3e 1b d7 7b bd
       0.06484864 -0.18058006 0.18895698 -0.061484437
000110 29 5a 30 bd cc 2b 0c bd 77 4a b4 bd 79 73 4e be
       -0.043054733 -0.034221455 -0.088032655 -0.20161237
000120 ed b4 91 bd 59 21 65 bd fa 3e eb bc c5 8d 84 bd
       -0.07114587 -0.055940006 -0.028716553 -0.06472353
000130 d9 57 91 bd a8 93 ca 3d 16 9a 3c be b7 6f e0 3d
       -0.07096834 0.098914444 -0.18418154 0.10958808
000140 8f 4c 93 3d ab a2 f4 3d 7d ec 32 bd 7f cf 37 be
       0.07192337 0.11945089 -0.043682564 -0.17950247
000150 5c 50 ff bd 96 00 91 bd 58 8d 18 bc 63 85 1f be
       -0.12466499 -0.0708019 -0.009311043 -0.15578227
000160 9c b7 5c 3d 38 64 28 be 5c 94 b8 3d a5 76 2e be
       0.05388604 -0.1644448 0.09012672 -0.17037447
000170 cb ef 81 bd ae 55 01 be fa fa df bc 4c 50 ea 3d
       -0.06344565 -0.1263034 -0.027341355 0.11441097
000180 8f bd e0 3d a3 47 69 bd 3d 89 90 3d b1 22 26 3e
       0.109736554 -0.056953084 0.07057426 0.16224171
000190 ce d2 0d bd 5d 38 b2 ba be 97 13 3d 78 36 58 3d
       -0.034624867 -0.001359712 0.036033385 0.05278632
0001a0 67 59 11 be f8 89 ca bd 61 17 0c 3c 8a 80 10 3e
       -0.1419426 -0.09889597 0.008550496 0.14111534
0001b0 47 5b 00 3d 4f e1 e2 3d bd b6 2c 3b 04 49 12 3d
       0.03133705 0.110781305 0.0026354038 0.035714164
0001c0 65 aa bc 3d 6d 37 13 be d0 49 a4 3d 7f 06 2b 3d
       0.09212188 -0.14376612 0.08021891 0.041754242
0001d0 d3 5b a1 bc 01 0d 21 3e 2e b2 17 be 63 57 43 be
       -0.019697106 0.15727617 -0.14814064 -0.19076304
0001e0 27 02 dc 3c 91 b9 04 3c 6e 8e f3 3c 1b 98 00 3e
       0.026856495 0.008100883 0.029731002 0.12558024
0001f0 05 57 f3 3d ee 72 7f 3d b2 59 35 be af 2d 15 be
       0.11881832 0.062365465 -0.17709997 -0.14568208
000200 5d 7f 86 3d 6c ac 7d 3d 74 22 b0 3d 01 c0 f3 3d
       0.06567261 0.061932012 0.086003214 0.11901856
000210 8a 99 45 be 7c 0e 80 3c 91 3a 82 b9 c0 93 35 be
       -0.19296852 0.015631907 -0.00024839168 -0.17732143
000220 52 55 35 3d e4 27 2e be ef 8c 2e bc 3e 56 94 3d
       0.04427082 -0.17007405 -0.010653718 0.07243012
000230 2e 42 9a 3d a3 aa b4 bd 00 cf 60 bd 08 b7 e7 bd
       0.07532154 -0.08821609 -0.05488491 -0.11314207
000240 f5 28 7c 3d a2 75 65 ba b4 d2 a8 3d 9f 93 e2 bc
       0.061562497 -0.00087531854 0.082433134 -0.027658282
000250 11 72 88 3d 6c a0 f0 3d 91 82 54 3d 51 f4 b0 3d
       0.066623814 0.11749348 0.05188233 0.0864035
000260 a4 3f 58 bd 59 79 27 3b ee f2 8a bd d7 8f 08 be
       -0.052795067 0.0025554507 -0.067846164 -0.1333612
000270 66 34 2a 3c fa 26 fa 3d 70 0a 5a bd 2f 96 22 3e
       0.010388469 0.122144654 -0.05323261 0.15877603
000280 44 6a 8c 3d 8e 4d e3 3d 67 46 0f 3e fd 5f a7 3d
       0.06856206 0.11098777 0.139917 0.08172605
000290 25 3b f9 bd 9f 27 33 3c 87 71 6b bd 3c e6 01 be
       -0.12169484 0.010934739 -0.057481315 -0.12685484
0002a0 1a 3b 34 be b5 ee 34 3b 78 4f 92 3d 2a 4b 10 be
       -0.1760067 0.00276081 0.07144064 -0.14091173
0002b0 55 9a f6 bd 35 d8 06 3e e9 00 e3 3d 80 a6 04 bd
       -0.12041155 0.13168414 0.11084158 -0.03238535
0002c0 08 1d 67 bd 33 15 bd 3d 39 47 52 bc af 23 c2 3d
       -0.05642417 0.09232559 -0.012834364 0.09479462
0002d0 39 5b 8e 3d fa 6a 80 bd 7b 5f 0f 3e 32 8c c0 bd
       0.06950993 -0.06270404 0.14001267 -0.0940174
0002e0 1c 23 3d 3d 00 98 bc bc 5b 43 ad 3c 6e 93 90 3d
       0.04617606 -0.023021698 0.021150282 0.0705937
0002f0 a0 79 12 be f0 8e 08 bd a9 e4 2e be 6e ba 41 3c
       -0.14304209 -0.03333944 -0.17079414 0.011824233
000300 b1 2d 3f bd 60 7e cc bd 07 3d e1 3d 76 10 a9 3c
       -0.046674434 -0.099850416 0.10997968 0.020637732
000310 0a fd 0f be 43 4c a8 3d b6 44 69 bd e7 c6 93 3d
       -0.1406137 0.08217671 -0.056950293 0.07215672
000320 ff 5c 69 bd 0b 79 10 3d 9e d9 fc 3d d6 89 d0 3c
       -0.056973454 0.035271686 0.12346195 0.02545635
000330 b6 c0 a8 3d 6d 75 b2 bb db 9d b1 3d 6d 43 aa bd
       0.08239882 -0.005446127 0.08672687 -0.08313642
000340 a9 a3 fa 39 8b 76 49 be 0b bd 43 be ec 23 3f be
       0.00047805652 -0.19674127 -0.19115083 -0.18666047
000350 40 e3 bc 3b d1 93 7e 3d 34 b5 9c bc 30 16 f6 bd
       0.005764395 0.062152687 -0.019129373 -0.12015951
000360 1f 82 87 bc ef 90 e7 bd b5 43 d4 3d 2a 24 88 bd
       -0.016541539 -0.11306941 0.103644766 -0.06647523
000370 98 b3 8e 3d 52 4a e0 3d ad 68 99 bd 3d 5b 1a be
       0.069678485 0.109516755 -0.074906684 -0.15073867
000380 59 12 b8 bd e3 f1 41 be 37 99 25 3b c9 fa 4a bd
       -0.089878745 -0.18939929 0.0025268325 -0.049555574
000390 fe a5 c6 bd 86 cf be 39 c3 d9 d7 3d 07 c6 11 3e
       -0.09699629 0.0003639424 0.105395816 0.14235698
0003a0 31 36 c2 bd 7e 42 9b 3d 86 5b 71 38 7e f1 2d 3e
       -0.094829924 0.07581042 5.7544115e-05 0.16986653
0003b0 26 79 86 3d e6 b0 e2 bc 3e 9f 01 be 75 8c fd 3d
       0.06566076 -0.027672242 -0.12658402 0.12380306
0003c0 a0 93 04 3d 70 51 e6 3d 1b ed 74 3d 00 45 1d be
       0.03236735 0.11246002 0.059796434 -0.15358353
0003d0 51 e9 0b 3d 73 64 a2 bc 93 fb d4 bd 87 e1 43 be
       0.034158055 -0.019823289 -0.103995465 -0.19129
0003e0 3b 69 61 3c 78 0f 5f 3c 42 87 70 3d ba bb 70 3d
       0.013757999 0.013614528 0.058722742 0.05877278
0003f0 80 05 8b 3d 8d 71 17 be 02 c5 03 bd d8 16 87 bd
       0.067881584 -0.1478941 -0.032170303 -0.06596154

fc2.bias f4 [10]
000000 e1 e4 09 3d 81 be de 3d 72 08 2b be 3f 85 60 bd
       0.03366554 0.108761795 -0.1670244 -0.054814573
000010 c6 e4 4e 3d f6 21 00 3e 96 e9 99 3c 84 4c ac bc
       0.050511144 0.12512955 0.01878814 -0.02103258
000020 26 f6 96 3d e5 a9 cb bd
       0.07371168 -0.09944514
